Model: "sequential"
_________________________________________________________________
Layer (type)                 Output Shape              Param #
=================================================================
embedding (Embedding)        (None, 87, 128)           1052672
_________________________________________________________________
lstm (LSTM)                  (None, 87, 200)           263200
_________________________________________________________________
lstm_1 (LSTM)                (None, 200)               320800
_________________________________________________________________
dense (Dense)                (None, 128)               25728
_________________________________________________________________
dense_1 (Dense)              (None, 128)               16512
_________________________________________________________________
dense_2 (Dense)              (None, 3)                 387
=================================================================
Total params: 1,679,299
Trainable params: 1,679,299
Non-trainable params: 0
_________________________________________________________________
[0. 0. 1.]
[0. 0. 1.]
[0. 0. 1.]
Epoch 1/50

















787/787 [==============================] - 48s 50ms/step - loss: 0.5840 - acc: 0.7645 - val_loss: 0.5261 - val_acc: 0.7916
Epoch 2/50
…
